lgd_net.pth (torch, 215658 bytes, 26 tensors)

step_size f4 [5]
0	0x3e17b29b	0.14814226
1	0x3e119b45	0.14219387
2	0x3dbf0c73	0.093285464
3	0x3e315b93	0.17320089
4	0x3db8a292	0.09015383

prox.0.conv1.weight f4 [32, 2, 3, 3]
0	0x3bb47f6d	0.0055083544
1	0x3e898003	0.26855478
2	0x3c907033	0.017631626
3	0x3e2216cf	0.15829013
4	0xbd998c20	-0.0749743
5	0xbd500562	-0.050786383
6	0x3e0eb3de	0.13935801
7	0x3dbf1ee2	0.09332062
8	0x3e0b4ec6	0.13604268
9	0xbe86b9e1	-0.2631369
10	0xbe645b31	-0.22300412
11	0xbe19c99a	-0.15018311
12	0x3df89e22	0.121395364
13	0xbe81f5ec	-0.25382936
14	0x3e677202	0.22602084
15	0x3e724914	0.2366069
16	0xbd4b7f39	-0.049681876
17	0x3de66456	0.11249606
18	0xbe6232b4	-0.22089654
19	0x3e671090	0.22564912
20	0x3e6a45d8	0.22878206
21	0x3cde9b11	0.02717355
22	0x3d095d46	0.033536218
23	0xbe4270cc	-0.18988341
24	0xbe293583	-0.1652432
25	0xbe6b5b42	-0.22984031
26	0xbdfdea7d	-0.12398241
27	0xbe525b89	-0.2054273
28	0x3e31646f	0.17323469
29	0x3d97f1fa	0.074192
30	0xbd1f1c44	-0.038845316
31	0x3dd90ce0	0.10598159
32	0xbd564553	-0.052312206
33	0x3e356463	0.17714076
34	0x3d981f26	0.07427816
35	0x3d17ab3e	0.037028544
36	0xbe5535d7	-0.2082132
37	0x3e257fa6	0.16161975
38	0x3dbaa326	0.09113149
39	0xbdc7299c	-0.09724733
40	0xbe858608	-0.2607882
41	0xbe85434b	-0.26027903
42	0xbd5b27f1	-0.053504888
43	0x3e312395	0.1729873
44	0xbe3f22e0	-0.18665648
45	0xbdbc30fc	-0.091890305
46	0x3e97dfa8	0.29662824
47	0xbe291bf0	-0.16514564
48	0xbe0d22e1	-0.13782836
49	0xbdc1793f	-0.09446954
50	0x3df22678	0.118237436
51	0x3e7caaaa	0.24674478
52	0x3e4ec11d	0.20190854
53	0xbe4374e5	-0.1908756
54	0xbe1929b2	-0.14957312
55	0xbe57ffae	-0.21093628
56	0x3cffff05	0.031249532
57	0xbe82f253	-0.25575504
58	0xbe1cf679	-0.15328397
59	0xbdabaa43	-0.08382084
60	0xbe7e2863	-0.24820094
61	0xbe2f1d28	-0.17100966
62	0xbe8d9988	-0.27656198
63	0x3dc6db85	0.09709839
64	0x3e4f6e4a	0.20256916
65	0xbe33ce16	-0.17559084
66	0xbd020370	-0.03174156
67	0xbd9fddd0	-0.07805979
68	0x3e431231	0.19049908
69	0xbd923f48	-0.07140976
70	0x3d9ce35c	0.07660553
71	0xbd700741	-0.058600668
72	0xbdbeaa0c	-0.093097776
73	0xbe0e2359	-0.13880672
74	0xbe72c56f	-0.23708127
75	0xbda2b7f0	-0.079452395
76	0xbde72783	-0.11286833
77	0x3dcb8a68	0.09938508
78	0xbe6c42e5	-0.23072393
79	0xbd974564	-0.07386282
80	0xbdd4f767	-0.10398751
81	0x3e7e7011	0.24847437
82	0xbdcc6406	-0.099800155
83	0xbe1371af	-0.14398836
84	0x3e842999	0.25812986
85	0x3dfd0ce7	0.123559766
86	0x3db649f1	0.08900822
87	0x3e2f50f2	0.17120722
88	0x3e3ac85a	0.1824049
89	0xbdea0891	-0.11427415
90	0x3da6e7f2	0.08149709
91	0xbd466ab0	-0.04844159
92	0xbe4ba757	-0.19888054
93	0xbe9211b3	-0.28529128
94	0xbe7628a9	-0.24038948
95	0x3cba284e	0.022724297
96	0xbe17717c	-0.14789385
97	0x3d18ec05	0.03733446
98	0xbe294c1b	-0.16532938
99	0xbd8005aa	-0.0625108
100	0x3c9243cd	0.017854596
101	0x3cff0eb4	0.03113494
102	0xbe7d207f	-0.24719428
103	0xbe508fc0	-0.20367336
104	0xbe19d168	-0.15021288
105	0x3e625df0	0.22106147
106	0xbe005f05	-0.12536247
107	0x3e3f39b9	0.18674363
108	0x3e939832	0.28827053
109	0x3e7303ba	0.2373189
110	0xbd969678	-0.073529184
111	0x3e5b88ba	0.21438876
112	0x3e2ab543	0.16670708
113	0x3e82447c	0.25442874
114	0xbc851dbb	-0.016249528
115	0xbd1971a5	-0.037461895
116	0xbe024b0e	-0.12723944
117	0x3e79dafc	0.24399942
118	0x3d31495e	0.04328286
119	0x3e1b39b9	0.15158738
120	0xbd2213ed	-0.039569784
121	0xbd167756	-0.0367349
122	0xbe475b53	-0.19468431
123	0xbe884e65	-0.2662231
124	0x3dec187a	0.11528106
125	0xbe38be7c	-0.18041414
126	0x3dddaf14	0.10824409
127	0xbb9dc52b	-0.004814764
128	0xbe2144d9	-0.1574892
129	0x3d541afc	0.051783547
130	0xbe4da691	-0.20083071
131	0x3dfc5b86	0.12322144
132	0x3ca3e8b7	0.020008428
133	0x3d6590e8	0.056046396
134	0x3cc8db3b	0.0245186
135	0x3d727d47	0.059201505
136	0x3e19d459	0.1502241
137	0x3d75b0c8	0.059983045
138	0xbe56cae6	-0.20975837
139	0x3e0db9b0	0.13840365
140	0x3e2f755d	0.17134614
141	0xbe8518ca	-0.25995475
142	0x3c49b34c	0.012310814
143	0x3dedf29a	0.11618538
144	0xbe0fe7b3	-0.1405323
145	0x3e345f3e	0.17614457
146	0x3dc8891d	0.09791777
147	0xbe1a6b36	-0.1507996
148	0xbe0d6e97	-0.13811718
149	0x3c816bf7	0.015798552
150	0xbe7c0d40	-0.2461443
151	0xbe0446b0	-0.1291759
152	0x3e76c260	0.24097586
153	0x3e1a3b4d	0.15061684
154	0xbe22ad7d	-0.15886493
155	0x3d86910e	0.06570636
156	0xbc37159a	-0.011174584
157	0x3e63f741	0.22262289
158	0x3e0f386e	0.1398637
159	0xbe10d6b7	-0.14144407
160	0x3bfeef2b	0.007779976
161	0x3e03664e	0.12831995
162	0x3d79f489	0.061024223
163	0x3e339ec8	0.17541039
164	0xbe872d86	-0.2640192
165	0x3e0f920e	0.14020559
166	0x3e13f35f	0.14448307
167	0x3da59797	0.08085554
168	0x3e2a9a12	0.16660336
169	0x39e37020	0.00043380354
170	0xbe12ef88	-0.14349186
171	0x3de4dec2	0.111753
172	0xbddd2096	-0.10797231
173	0x3dddce38	0.10830349
174	0x3db763b7	0.08954566
175	0x3e4f9c54	0.20274478
176	0xbe626da7	-0.22112142
177	0xbd150d5d	-0.036389697
178	0x3e6e0a34	0.2324608
179	0xbd83bac0	-0.06432104
180	0xbca5b876	-0.02022956
181	0xbc858427	-0.016298367
182	0x3e0ba547	0.13637267
183	0x3ea4dcbf	0.32199666
184	0x3d068269	0.032839213
185	0x3e3c8025	0.18408258
186	0x3cd4e9e1	0.025990428
187	0xbd9519ea	-0.07280333
188	0x3e1d5cfb	0.153675
189	0xbdac2e58	-0.08407277
190	0x3e1bd826	0.15219173
191	0x3d13434d	0.035952855
192	0x3c1b127b	0.009464855
193	0xbd8030eb	-0.0625933
194	0x3e033db4	0.12816507
195	0x3ce565be	0.028002616
196	0x3dcf6605	0.101268806
197	0x3cc11ac0	0.023572326
198	0xbc9f67dc	-0.019458704
199	0xbd102627	-0.035192635
200	0x3e29cc50	0.16581845
201	0x3e2fc03b	0.17163174
202	0xbe60e6f6	-0.21963105
203	0x3e3c1748	0.18368256
204	0xbe86ace8	-0.26303792
205	0xbe4a4b6b	-0.19755332
206	0xbdf1f5a3	-0.118144296
207	0x3e616a25	0.22013147
208	0x3e36fab6	0.17869076
209	0x3e20b486	0.15693864
210	0x3e1293ba	0.14314166
211	0xbe2c4148	-0.16821778
212	0x3e7a44bc	0.24440283
213	0xbe23b237	-0.15985952
214	0xbd25ea99	-0.040506933
215	0x3dc1ad73	0.09456911
216	0xbd85152a	-0.06498177
217	0x3e044d28	0.12920058
218	0x3e883a9b	0.26607212
219	0x3e08fb2e	0.13377067
220	0x3e685733	0.22689514
221	0x3d712666	0.05887451
222	0x3e57338c	0.21015757
223	0x3db7c8e7	0.08973866
224	0x3ca196a2	0.019725148
225	0x3ca34743	0.019931441
226	0xbcd79031	-0.026313873
227	0xbe3fe5e8	-0.18740046
228	0x3e395400	0.1809845
229	0x3d962ada	0.07332392
230	0xbcb08437	-0.02154742
231	0xbddc2d83	-0.10750868
232	0x3d7083d2	0.058719464
233	0x3e4094e6	0.188068
234	0x3b7a7bdb	0.0038220796
235	0x3e5ce683	0.21572308
236	0xbdfbd6be	-0.12296818
237	0x3c3b4d9d	0.011432079
238	0xbe705af2	-0.23472193
239	0xbd65e9fe	-0.056131355
240	0xbe5f79e2	-0.21823838
241	0xbd9c95ba	-0.076457456
242	0xbdd89de3	-0.105769895
243	0x3dc3725e	0.09543298
244	0xbe0a696f	-0.13516782
245	0x3bd4b0c5	0.006490799
246	0x3d959ca8	0.073052704
247	0x3ddf421c	0.10901281
248	0xbc8d0304	-0.017213352
249	0xbe3a124c	-0.18171042
250	0x3d5e21c1	0.05423141
251	0x3db29b34	0.08721009
252	0x3dde65bd	0.10859249
253	0x3d754a9f	0.059885617
254	0x3e05f93e	0.1308336
255	0x3e80cbb3	0.2515541

prox.0.conv1.bias f4 [32]
0	0xbd22bf5f	-0.039733287
1	0xbc833bf9	-0.016019808
2	0x3db39792	0.08769144
3	0x3e3324ff	0.17494582
4	0x3d1b870c	0.037970588
5	0xbe2c10c0	-0.16803265
6	0xbe6aa346	-0.22913846
7	0xbd8db84b	-0.06919917
8	0x3dd2fcc9	0.10302121
9	0x3e479db0	0.19493747
10	0xbe154e67	-0.1458069
11	0x3e916958	0.28400683
12	0xbe92485a	-0.28570825
13	0x3e886456	0.2663905
14	0xbe508432	-0.20362929
15	0x3e94907b	0.2901648
16	0xbdc7751e	-0.09739135
17	0x3df100da	0.117677405
18	0x3e26094c	0.16214484
19	0xbe211924	-0.15732247
20	0x3df49290	0.11942017
21	0xbe29ffd8	-0.16601503
22	0x3e68d22f	0.22736429
23	0x3ceffcf8	0.02929543
24	0x3e621a2b	0.22080295
25	0xbdcda9bf	-0.10042142
26	0x3e682552	0.22670487
27	0x3e17f486	0.14839372
28	0xbe10e6ad	-0.14150496
29	0xbe0311cf	-0.12799762
30	0x3e2a3079	0.16620053
31	0x3d827b77	0.06371205

prox.0.conv2.weight f4 [32, 32, 3, 3]
0	0xbd6800b5	-0.0566413
1	0x3bce96bc	0.00630459
2	0x3d0706d5	0.0329655
3	0xbb0be315	-0.0021345068
4	0xbd258b9b	-0.04041634
5	0xbc8e069c	-0.017337136
6	0x3d1351e7	0.03596678
7	0x3d545be8	0.05184546
8	0xbc0468c0	-0.008081615
9	0x3d0a9f8b	0.03384356
10	0x3d1958d6	0.037438236
11	0x3dcf1912	0.10112204
12	0x3d82c189	0.0638457
13	0x3c63b11a	0.013897205
14	0x3d9c79c6	0.07640414
15	0x3d55a1fe	0.05215644
16	0x3952c788	0.00020101492
17	0x3ced5e78	0.02897571
18	0xbd958e04	-0.07302478
19	0x3d5b5b1e	0.053553693
20	0x3d8c8672	0.06861581
21	0x3d11b775	0.03557535
22	0x3d141ba2	0.036159165
23	0x3db95bc2	0.090507045
24	0xbc5d782b	-0.01351742
25	0x3d1d5c8d	0.03841834
26	0x3dfe7d01	0.12426186
27	0xbdc393fe	-0.09549712
28	0x3a03bff8	0.0005025859
29	0xbc546ec3	-0.012965861
30	0x3d8b682f	0.06806981
31	0x3d9f3940	0.077745914
32	0x3d3366a4	0.043799058
33	0xbcb9e700	-0.022693157
34	0x3d492db8	0.049115866
35	0x3ba4d70f	0.00503052
36	0x3c80fe48	0.01574625
37	0x3d4b2b60	0.049601912
38	0x3d0fa197	0.035066213
39	0x3c51651f	0.012780457
40	0x3cb5a3fc	0.02217292
41	0x3d7ca843	0.061683904
42	0x3cd49837	0.025951488
43	0xbd0e5793	-0.034751486
44	0x3d5ec27b	0.05438469
45	0xbd8214c7	-0.06351619
46	0xbd0fd9dc	-0.035119876
47	0xbd48da77	-0.04903647
48	0x3c440706	0.011964565
49	0x3c5e53cd	0.013569784
50	0xbc8d69a9	-0.017262297
51	0xbcb82650	-0.022479206
52	0x3d5121f9	0.05105779
53	0x3d759dd6	0.059964977
54	0x3d6be864	0.05759467
55	0xbcb7fc14	-0.022459067
56	0xbd0926fe	-0.03348445
57	0xbc6ae735	-0.014337351
58	0xbbbdef6d	-0.005796364
59	0xbd80b070	-0.06283653
60	0xbdb5bdab	-0.08874067
61	0xbd9c9a5f	-0.076466314
62	0xbce29270	-0.027657717
63	0x3d50a624	0.050939694
64	0x3ca59ec5	0.020217309
65	0x3ccb4d0a	0.024817009
66	0x3a83d507	0.0010057994
67	0x3d2b3c45	0.041805524
68	0xbd42a406	-0.047519706
69	0x3d1ec641	0.03876329
70	0xbba74800	-0.0051050186
71	0xbadfe917	-0.0017083016
72	0x3d428d19	0.047497842
73	0xbd650d7f	-0.055921074
74	0x3d8b120f	0.06790554
75	0xba90aaee	-0.0011037269
76	0xbd7dabad	-0.0619313
77	0x3d57d59d	0.052693952
78	0xbcb5fb49	-0.022214549
79	0xbb864322	-0.0040973583
80	0x3b61cfe4	0.0034456188
81	0x3c4e7ecf	0.012603476
82	0xbc4e2cbd	-0.012583909
83	0x3d04ad9d	0.032392133
84	0x3ce54636	0.02798758
85	0xbc9c08a0	-0.019047081
86	0x3d173d3f	0.036923643
87	0xbd58ac36	-0.05289861
88	0xbb87c721	-0.004143611
89	0xbd150af4	-0.0363874
90	0xbdf07909	-0.117418356
91	0x3cf6824f	0.030091433
92	0x3c86fabe	0.016476985
93	0xbd63df08	-0.05563262
94	0xbd520306	-0.051272415
95	0x3d18191e	0.03713333
96	0xbda2717f	-0.07931804
97	0x3d5e3bb3	0.054256152
98	0xbdc4e243	-0.096134685
99	0xbc09a9b5	-0.008402278
100	0x3d241030	0.0400545
101	0xbc102c9a	-0.008799696
102	0xbccd3c5b	-0.025053194
103	0x3c4c55ea	0.012471655
104	0x3d112282	0.0354333
105	0x3c0d9772	0.008642064
106	0x3d60b34d	0.054858495
107	0x3d47b9ea	0.048761286
108	0xbdf535a8	-0.11973125
109	0xbc2e140d	-0.010624898
110	0xbd6a7eb3	-0.057249736
111	0xbd7f0b84	-0.06226684
112	0xbd53c63c	-0.051702723
113	0xbdc95a9b	-0.09831735
114	0xbc58d12a	-0.013233462
115	0xbd97b159	-0.07406873
116	0xbdb49b85	-0.088187255
117	0xbd3b7bf6	-0.045772515
118	0x3d34773b	0.04405902
119	0x3d74b353	0.05974133
120	0x3c5cbb41	0.013472379
121	0x3c6a81b3	0.014313149
122	0x3daf5a2a	0.08562119
123	0x3db5f2eb	0.088842236
124	0x3da2c467	0.07947617
125	0x3c028bc5	0.007967894
126	0xbd2c7f20	-0.042113423
127	0x3c8aa9e4	0.016926713
128	0xbdbcdb93	-0.09221568
129	0xbd6be36d	-0.057589937
130	0x3c91047e	0.017702337
131	0xbcc079ea	-0.023495633
132	0xbd442984	-0.047891155
133	0xbce6038d	-0.028077865
134	0xbd3364e0	-0.043797374
135	0xba603bc5	-0.0008553828
136	0xbadf0db7	-0.0017017637
137	0x3d93b168	0.07211572
138	0x3c10dabe	0.008841215
139	0x3d33a52c	0.043858692
140	0x3d8e1894	0.06938282
141	0x3ce5b63b	0.028040996
142	0x3d853a6b	0.06505283
143	0x3b82ea99	0.0039952514
144	0xbd16936c	-0.036761686
145	0xbc5b1e4c	-0.013373923
146	0xbcd7fa88	-0.02636458
147	0xbdd45f5b	-0.1036975
148	0x3cb7d508	0.022440448
149	0xbd96e04d	-0.07367001
150	0xbc63cfc9	-0.01390452
151	0x3d4c83dd	0.049930442
152	0xbd536e44	-0.05161883
153	0xbdfe8807	-0.12428289
154	0xbc01d027	-0.007923163
155	0x3d23275f	0.03983247
156	0xbcc919fd	-0.024548525
157	0x3d53c179	0.05169818
158	0x3d965b88	0.07341677
159	0xbcc97ea6	-0.024596523
160	0x3da76f21	0.08175493
161	0x3d6375bc	0.055532202
162	0x3d4b38b6	0.04961463
163	0x3c8be334	0.017076112
164	0x3cbf6628	0.023364142
165	0x3cb557d3	0.022136604
166	0x3ccb1447	0.024789942
167	0xbc85acdf	-0.016317783
168	0xbcf3a5bc	-0.029742114
169	0x3c547072	0.012966262
170	0xbd6ab003	-0.057296764
171	0xbd015ce9	-0.031582747
172	0x3c6a981c	0.014318492
173	0x3bead7eb	0.0071668527
174	0x3cc7d8db	0.024395397
175	0xbcfb4463	-0.030672258
176	0xbc72da1e	-0.014822511
177	0x3cb5fc2c	0.022214971
178	0x3d8792df	0.0661981
179	0xbd43d28f	-0.047808226
180	0xbc82c654	-0.01596371
181	0xbd3ac636	-0.045599185
182	0x3bc32d3b	0.0059563196
183	0xbd8a8acd	-0.067647554
184	0x3b2f2b57	0.0026728713
185	0xbd2d06af	-0.042242702
186	0x3c9d7fa5	0.019225905
187	0xbd0b1ea3	-0.033964764
188	0xbd586b38	-0.052836627
189	0xbd35da7f	-0.044397827
190	0xbd95f905	-0.07322887
191	0xbdcc188f	-0.09965622
192	0xbd06819b	-0.032838445
193	0x3c10e7e4	0.0088443495
194	0xbc0422cf	-0.00806494
195	0xbc9a1c69	-0.018812375
196	0xbd8c75e7	-0.068584256
197	0xbd5db556	-0.054128014
198	0x3c9dbf41	0.019256236
199	0x3d4619a1	0.048364285
200	0xbdb4c08b	-0.08825787
201	0xbd211139	-0.039323065
202	0xbcf1e416	-0.029527705
203	0xbbb0f9f9	-0.005400893
204	0xbc5740f2	-0.013138043
205	0x3d97ff8c	0.074217886
206	0xbc5338fb	-0.012892003
207	0xbce2874b	-0.027652403
208	0xbb162d2f	-0.0022915115
209	0xbbc480af	-0.0059967856
210	0x3d317179	0.043321107
211	0x3cba671a	0.02275424
212	0x39094f91	0.00013094979
213	0x3d874d95	0.066065945
214	0xbd4502ab	-0.048098247
215	0x3cafceeb	0.02146097
216	0xbcb5855d	-0.02215832
217	0xbb2554b6	-0.0025227494
218	0x3c1c8140	0.0095523
219	0x3d582879	0.052772973
220	0x3d9d9be6	0.07695751
221	0xbbebeb75	-0.0071996995
222	0xbd571b81	-0.052516464
223	0xbb8840d7	-0.00415812
224	0x3caae75d	0.020862276
225	0x3d00d303	0.031451236
226	0xbd6beb90	-0.057597697
227	0xbd4a4425	-0.049381394
228	0x3c02d388	0.007985003
229	0x3d1d5917	0.03841504
230	0xbd95100b	-0.072784506
231	0x3d61baab	0.05510966
232	0xbd94f020	-0.07272363
233	0xbb5b0a1c	-0.0033422774
234	0xbc278159	-0.01022371
235	0xbd546541	-0.051854376
236	0x3dabee6a	0.08395083
237	0x3d6ba266	0.057527922
238	0x3dbae36f	0.09125411
239	0x3d37de7f	0.044889923
240	0x3be21947	0.006899986
241	0xbcb1c18d	-0.021698738
242	0x3d952b7e	0.07283686
243	0x3d4a6b60	0.049418807
244	0x3cd8492e	0.026402082
245	0xbcd9d8ee	-0.026592698
246	0xbce54e57	-0.027991457
247	0x3b8f00af	0.004364095
248	0x3c6b2bba	0.014353687
249	0xbd6f75c9	-0.058461938
250	0x3b81b50d	0.0039583505
251	0xbba6c62a	-0.005089541
252	0xbdb5910c	-0.08865556
253	0xbd96785e	-0.07347177
254	0xbd799a7a	-0.060938336
255	0xbddc8727	-0.10767966

prox.0.conv2.bias f4 [32]
0	0xbcd617ec	-0.026134454
1	0x3d37f3fe	0.044910423
2	0x3d48d1e1	0.04902828
3	0xbc5a0c40	-0.013308585
4	0xbcc8ab98	-0.024495885
5	0x3d69b7ce	0.057060055
6	0x3d21ca6d	0.03949969
7	0x3d61e0ba	0.055145957
8	0x3c3a22d4	0.011360843
9	0xbc00c4d7	-0.00785943
10	0x3d17b248	0.037035257
11	0x3ce9a34b	0.028520247
12	0x3a8f5edb	0.0010938303
13	0xbc161a78	-0.009161584
14	0xbb634fe0	-0.003468506
15	0x3d16fa13	0.036859583
16	0x3da2a5ed	0.07941804
17	0x3d2929a3	0.041299473
18	0xb98784e1	-0.0002584821
19	0xbd1ad32b	-0.03779904
20	0x3dba1736	0.090864584
21	0xbc8020aa	-0.015640575
22	0xbbea87f7	-0.0071573216
23	0x3d77d202	0.060503013
24	0xbb97baf7	-0.0046304422
25	0xbc1eb5af	-0.009686871
26	0x3d0e5388	0.03474763
27	0xbbde3810	-0.0067815855
28	0x3da933b7	0.08261817
29	0x3d96fe0e	0.07372676
30	0x3d83c9a1	0.06434942
31	0xbcc75efa	-0.02433728

prox.0.conv3.weight f4 [1, 32, 3, 3]
0	0x3ddc045d	0.1074302
1	0x3de65e48	0.112484515
2	0xbcd775dc	-0.026301317
3	0x3d815433	0.06314888
4	0xbcc7ab9c	-0.024373822
5	0xbd656f93	-0.05601461
6	0x3d78bddf	0.06072795
7	0xbc566989	-0.013086685
8	0xbdd933cc	-0.106055826
9	0xbd2fb946	-0.0429013
10	0xbd90bd37	-0.0706734
11	0xbdd8f196	-0.10592954
12	0xbd8ab519	-0.06772823
13	0xbd66dbdb	-0.056362014
14	0xbd097e97	-0.03356799
15	0xbc0cb963	-0.0085891215
16	0xbde2b854	-0.11070314
17	0xbdbd2850	-0.092362046
18	0x3cc53a77	0.02407573
19	0x3d44659f	0.047948476
20	0xbd13d3fb	-0.036090832
21	0xbd5044a1	-0.0508467
22	0xbdc44dd6	-0.095851585
23	0xbdc57ca2	-0.096429124
24	0xbb2fe93c	-0.00268419
25	0xbb5d84ce	-0.0033801082
26	0xbda676e1	-0.08128143
27	0xbd731a85	-0.059351463
28	0xbcaf6349	-0.021409648
29	0xbdb9b0ec	-0.09066948
30	0xbdcfdf5d	-0.10150025
31	0xbd945f0c	-0.07244691
32	0xbdab530c	-0.08365449
33	0xbd97033a	-0.07373662
34	0xbd599ba1	-0.053126935
35	0x3d3682f0	0.044558465
36	0xbd3c2d73	-0.04594178
37	0x3d9251d7	0.07144516
38	0xbd0ee7b7	-0.03488895
39	0xbc929fc1	-0.017898442
40	0xbdb366bf	-0.08759832
41	0xbc9cecc6	-0.019155871
42	0xbdbe618f	-0.092959516
43	0xbd97b921	-0.074083574
44	0xbca20159	-0.019776033
45	0xbd06b259	-0.03288493
46	0x3d22a04f	0.039703663
47	0x3dab425b	0.08362266
48	0x3d7102a0	0.058840394
49	0x3dbfb6b3	0.09361019
50	0x3d90d8f5	0.07072631
51	0x3c925553	0.017862951
52	0x3da384d9	0.07984323
53	0x3cf210df	0.02954906
54	0x3d0ec97f	0.03486013
55	0xbd8897c0	-0.06669569
56	0xbd8c5506	-0.068521544
57	0xbd044717	-0.03229436
58	0xbd97ef77	-0.07418721
59	0xbd4f9a12	-0.050684042
60	0xbc226d98	-0.0099138245
61	0xbd2026dc	-0.03909956
62	0xbbd2dfb4	-0.006435359
63	0xbd6cff8d	-0.0578609
64	0x3bffd2df	0.00780712
65	0xbd06da94	-0.032923296
66	0xbcbf654e	-0.023363736
67	0x3d3bf15f	0.045884486
68	0x3de2b01d	0.11068747
69	0x3d074069	0.03302041
70	0x3db3180f	0.08744823
71	0x3d28676b	0.041114252
72	0xbcbef329	-0.023309307
73	0xbd25722a	-0.04039208
74	0xbd6298e9	-0.055321608
75	0xbd956b42	-0.072958484
76	0xbda39193	-0.079867505
77	0xbcf03c46	-0.029325616
78	0xbd3ce497	-0.046116438
79	0xbd8235b4	-0.06357899
80	0x3d56c0d0	0.052429974
81	0x3d1a6859	0.03769717
82	0xbbd42b71	-0.006474905
83	0xbd1151f0	-0.035478532
84	0x3b96b9f9	0.0045998064
85	0xbdb56ea7	-0.08858996
86	0xbd60968d	-0.054831076
87	0xbd9b0e26	-0.07571058
88	0xbd7bb2e1	-0.06144989
89	0xbc484628	-0.012223758
90	0x3d2ecfae	0.042678528
91	0xbdb124e3	-0.08649614
92	0x3c9a4646	0.018832337
93	0xbde2410a	-0.110475615
94	0xbd95f556	-0.07322185
95	0xbd61610f	-0.055024203
96	0x3cb86916	0.022511046
97	0xbc8cb33b	-0.017175307
98	0xbdd60c6d	-0.10451589
99	0x3cb28dd3	0.021796143
100	0xbaacfc73	-0.0013197794
101	0x3d795393	0.06087072
102	0x3c885079	0.016639935
103	0x3d3e96e6	0.046530627
104	0x3db87fa6	0.09008722
105	0xbdc99a67	-0.09843903
106	0x3d77180a	0.06032566
107	0xbd6f6fee	-0.058456354
108	0x3ccb6f9f	0.024833499
109	0xbd983f2c	-0.07433924
110	0xbdcc1b28	-0.09966117
111	0xbd1beb3c	-0.038066134
112	0xbd984e1b	-0.074367724
113	0xbd871da8	-0.06597453
114	0xbdd66049	-0.10467584
115	0xbdab2127	-0.08355933
116	0x3d94fafe	0.072744355
117	0x3dc646f3	0.09681501
118	0x3d71655d	0.05893456
119	0xbbbd2cb3	-0.005773151
120	0x3df1b095	0.118012585
121	0x3dfe9bb5	0.124320425
122	0x3cef4915	0.029209653
123	0x3d15ebdc	0.036601886
124	0x3dad0558	0.08448285
125	0x3dd8dc4b	0.105888925
126	0x3cc8dc1f	0.024519024
127	0xbcf2bb1b	-0.029630234
128	0xbc0dd680	-0.008657098
129	0x3d7448b9	0.059639666
130	0xbd9e232f	-0.077215545
131	0xbdb9c54c	-0.090708345
132	0x3d9892bb	0.074498616
133	0xbd51cd69	-0.051221285
134	0xbda58ec4	-0.08083871
135	0xbddedab1	-0.10881556
136	0xbcf00fb9	-0.029304372
137	0x3d29db09	0.041468654
138	0x3d9d5e77	0.07684033
139	0x3c8540ce	0.016266253
140	0x3cb672e0	0.022271574
141	0x3dbb4b17	0.091451816
142	0x3cbe9f53	0.023269331
143	0x3db434d6	0.0879914
144	0xbd6cf1a8	-0.05784765
145	0x3d290bb4	0.041270927
146	0x3d067b2f	0.03283232
147	0xbdacbd7f	-0.08434581
148	0x3b12679a	0.0022339583
149	0xbd832ba6	-0.0640481
150	0x3ce78421	0.028261246
151	0xbdbd3ae4	-0.09239748
152	0xbdab2ecd	-0.08358536
153	0x3d988773	0.0744771
154	0x3daf2a08	0.08552939
155	0x3d071c27	0.032985833
156	0x3c074323	0.008255753
157	0x3da5f536	0.08103411
158	0x3d9004ce	0.070321664
159	0xbd970974	-0.0737485
160	0xbd633df9	-0.055479024
161	0xbc674eeb	-0.014117937
162	0x3d87b117	0.06625574
163	0x3d48886b	0.048958223
164	0x3dd54796	0.104140446
165	0xbc31984a	-0.010839531
166	0x3d8dc9cd	0.06923256
167	0x3d22662c	0.03964822
168	0xbaeae1ea	-0.0017920111
169	0x3dd46d88	0.10372454
170	0x3d721fda	0.059112407
171	0x3c8ad236	0.01694594
172	0xbc949363	-0.018136686
173	0xbd971938	-0.07377857
174	0x3cff635e	0.031175312
175	0x3c489e54	0.01224478
176	0xbd9ef71c	-0.07761976
177	0x3ce074b7	0.027399404
178	0xbc3a1c40	-0.011359274
179	0x3cb7dd7b	0.022444477
180	0x3caf2a8c	0.021382593
181	0xbdcee98f	-0.101031415
182	0xbb174654	-0.002308269
183	0xbd6fca6e	-0.05854266
184	0xbd90df78	-0.07073873
185	0xbba1ea8c	-0.0049412902
186	0xbbfbd280	-0.0076850057
187	0xbd28c08b	-0.04119925
188	0xbd82e7e2	-0.063918844
189	0x3d4ee648	0.050512582
190	0xbda35d9a	-0.079768375
191	0xbda56f2f	-0.08077847
192	0xbce07ec7	-0.027404202
193	0x3d51f6f5	0.051260907
194	0xbd9a181f	-0.07524132
195	0x3d69fe37	0.057127204
196	0xbcead240	-0.028664708
197	0xbb50ef36	-0.0031880862
198	0xbda102fb	-0.078618966
199	0xbd9cbd1e	-0.07653259
200	0x3d091fb4	0.0334775
201	0xbd20f9e0	-0.0393008
202	0xbd1b942c	-0.037983105
203	0x3d562d3c	0.052289233
204	0xbd0102ac	-0.03149669
205	0xbd8bd23c	-0.068272084
206	0x3d315f66	0.04330387
207	0xbcbfdc02	-0.023420338
208	0x3dbca098	0.09210318
209	0x3da4f113	0.08053794
210	0x3c793d5b	0.015212382
211	0x3d8a455c	0.067515105
212	0x3c423d08	0.011855371
213	0xbda6d46c	-0.08145985
214	0xbd80ba00	-0.06285477
215	0xbc7539df	-0.014967411
216	0xba98ba5f	-0.0011652223
217	0x3d38e6d8	0.045142025
218	0xbd84cd8a	-0.06484516
219	0x3dae39d5	0.08507124
220	0xbbd5f308	-0.0065292157
221	0x3dbfb4c1	0.09360648
222	0xbceae1e7	-0.028672172
223	0x3ccca368	0.024980262
224	0x3dcea1c2	0.100894466
225	0xbcc1a8e4	-0.023640104
226	0x3d06abaf	0.032878574
227	0x3da060cf	0.07830965
228	0xbce2fa6b	-0.0277073
229	0xbdc14486	-0.09436898
230	0x3d5d186d	0.053978372
231	0xbc8f1b3a	-0.017469037
232	0xbdbd2d8c	-0.09237203
233	0xbd510665	-0.05103149
234	0x3c674459	0.014115416
235	0x3da6d8fd	0.08146856
236	0xbd88233f	-0.06647348
237	0x3d933006	0.07186894
238	0x3d9649df	0.073383085
239	0x3d9de8de	0.077104315
240	0x3dc0a88e	0.09407149
241	0x3dbb2e3b	0.09139677
242	0xbcdd9cff	-0.0270524
243	0x3d946038	0.07244915
244	0x3d1e514e	0.038651757
245	0xbc0ec2c2	-0.008713426
246	0x3d33ac97	0.043865766
247	0x3d33eaf5	0.043925244
248	0xbc4219ab	-0.01184694
249	0x3de2b703	0.11070063
250	0x3bff4a1e	0.007790818
251	0xbd0ad81e	-0.03389751
252	0x3dce4f85	0.10073761
253	0xbc977128	-0.018486574
254	0x3d83d4b3	0.064370535
255	0x3de411c4	0.11136201

prox.1.conv1.weight f4 [32, 2, 3, 3]
0	0x3e995a1d	0.29951563
1	0x3d8a8040	0.06762743
2	0x3e9b2ff2	0.30310017
3	0x3e0a4811	0.13504054
4	0xbd33c168	-0.04388562
5	0x3e9cd122	0.30628306
6	0x3d877f2a	0.066160515
7	0x3e8d31ed	0.27577153
8	0x3e8701c9	0.2636855
9	0xbe072cbd	-0.1320066
10	0xbe77b14c	-0.24188727
11	0xbe21619f	-0.15759896
12	0xbe653ddf	-0.22386883
13	0x3e0379ab	0.12839381
14	0x3e555e3e	0.20836732
15	0x3e22e6de	0.15908381
16	0x3b36c172	0.0027886298
17	0x3e2d6b4a	0.16935459
18	0x3e64a9f1	0.22330453
19	0xbde8dc25	-0.11370114
20	0x3e14920f	0.14508842
21	0x3e4bf611	0.19918086
22	0x3e6cb241	0.23114873
23	0xbe6f33ad	-0.23359556
24	0xbe25fe2b	-0.16210239
25	0xbe4d2a44	-0.20035654
26	0xbd1a8f70	-0.03773445
27	0xbe2d2a6b	-0.16910712
28	0x3e229a92	0.15879276
29	0x3e6e64fe	0.23280713
30	0x3dc8c974	0.09804049
31	0xbe31cd21	-0.17363407
32	0x3e23f51a	0.16011468
33	0x3b5e10a6	0.0033884435
34	0xbe5c924b	-0.21540181
35	0xbe0b8ab3	-0.13627128
36	0x3e202ecd	0.15642853
37	0xbcb30327	-0.02185209
38	0xbbfb2536	-0.007664348
39	0x3e7e06c9	0.24807276
40	0xbe3941a7	-0.1809145
41	0x3e720a66	0.23636779
42	0xbde3b21e	-0.111179575
43	0x3e29d42b	0.16584842
44	0xbdda1c73	-0.106499575
45	0xbe6da366	-0.23206863
46	0x3dba3704	0.09092525
47	0x3e660871	0.22464158
48	0x3e20f2d1	0.15717627
49	0xbe4c2394	-0.19935447
50	0x3e2b0aa1	0.16703273
51	0x3e0be531	0.13661648
52	0x3e6b6ee3	0.22991519
53	0x3d8a52de	0.06754087
54	0x3dc2e16b	0.09515651
55	0xbdb6aa9a	-0.089192584
56	0x3e72d375	0.23713477
57	0x3e2b2222	0.1671224
58	0xbe2187ae	-0.15774414
59	0xbe302c54	-0.1720441
60	0x3e3e3283	0.18573956
61	0xbda22237	-0.07916682
62	0x3e4a23b4	0.19740182
63	0x3e0abcd2	0.13548592
64	0xbe6afd05	-0.22948082
65	0x3e0f5a59	0.13999309
66	0xbcf63d79	-0.03005861
67	0xbd8e110e	-0.06936847
68	0xbddcf28a	-0.10788448
69	0x3df9dbb9	0.12200112
70	0xbddc395c	-0.10753128
71	0xbe77958c	-0.24178141
72	0x3dad4e0a	0.084621504
73	0xbe250b30	-0.16117549
74	0xbe13d667	-0.14437257
75	0x3df994e5	0.121866025
76	0x3e5ee365	0.21766432
77	0x3dc9e7bd	0.09858654
78	0xbe5b6f44	-0.21429163
79	0x3e739b08	0.23789608
80	0x3ce8c5f6	0.028414708
81	0x3dc04cd4	0.09389654
82	0x3d22638e	0.039645724
83	0x3e537aa2	0.2065225
84	0xbe18b93c	-0.14914411
85	0x3e444982	0.19168666
86	0x3e7efb5e	0.24900576
87	0xbd13eaf8	-0.036112756
88	0x3db936e5	0.090436734
89	0x3dd0adc1	0.10189391
90	0xbe036f58	-0.12835443
91	0xbe15b9dc	-0.14621681
92	0x3e54a6fb	0.20766823
93	0xbd792b49	-0.060832296
94	0x3e21497a	0.15750685
95	0x3de77b3c	0.11302802
96	0xbdea5ea6	-0.11443834
97	0xbe428979	-0.18997754
98	0xbd28d2e5	-0.04121675
99	0xbe71913a	-0.23590556
100	0xbe1d4c61	-0.15361167
101	0x3e2beda4	0.16789871
102	0xbd7981e9	-0.060914908
103	0xbe6f57fd	-0.23373409
104	0x3d49cdc1	0.049268488
105	0xbb79f8c1	-0.0038142654
106	0xbc3b5423	-0.011433634
107	0xbde8a0ec	-0.113588184
108	0x3df8a542	0.121408954
109	0xbdcfbc51	-0.101433404
110	0xbdd9631a	-0.10614605
111	0xbc47063e	-0.012147484
112	0x3dbc2a05	0.09187702
113	0xbe83d648	-0.2574942
114	0xbe7e0cd2	-0.24809578
115	0x3e165677	0.14681421
116	0xbe131aec	-0.14365739
117	0x3e11c1d4	0.14234096
118	0x3d7a4b68	0.06110707
119	0x3c931358	0.01795356
120	0xbdad513e	-0.08462761
121	0x3ddb2f8b	0.107024275
122	0xbe587eaf	-0.21142076
123	0xbdbfb518	-0.09360713
124	0x3dd09c50	0.10186064
125	0x3de24192	0.11047663
126	0xbe2c0a2e	-0.16800758
127	0x3e943093	0.2894331
128	0x3e2f93bd	0.17146201
129	0x3da570f9	0.080781884
130	0xbe812983	-0.25226983
131	0x3e2dcf57	0.16973625
132	0xbe4dde88	-0.2010442
133	0x3e7214c9	0.23640741
134	0x3e2438c5	0.16037281
135	0x3a091525	0.0005229286
136	0xbccfd9af	-0.025372354
137	0xbdeab6ff	-0.11460685
138	0x3e3050a0	0.17218256
139	0xbe2b0cbb	-0.16704075
140	0x3e32cf3a	0.17461863
141	0xbbc437ac	-0.005988082
142	0xbe812e12	-0.2523046
143	0xbd861821	-0.06547571
144	0x3d2a71d5	0.041612465
145	0xbdd453cc	-0.103675455
146	0x3dda4948	0.106585085
147	0xbe825b33	-0.25460204
148	0x3e4c45b7	0.19948469
149	0x3df9f421	0.12204767
150	0x3d8a8fe9	0.0676573
151	0x3dda5be7	0.1066206
152	0xbd41c3e8	-0.04730597
153	0xbd329aa2	-0.0436045
154	0x3e128bb9	0.14311112
155	0x3e4096fd	0.18807597
156	0x3d998547	0.07496124
157	0x3e4a0828	0.19729674
158	0xbe0316ea	-0.1280171
159	0xbe61157b	-0.2198085
160	0xbd63694e	-0.05552035
161	0xbe70fb0b	-0.23533265
162	0xbe2e6423	-0.17030387
163	0xbe403cb6	-0.1877316
164	0x3da4eb67	0.08052712
165	0xbc631675	-0.013860335
166	0xbe77a314	-0.24183303
167	0xbe98752c	-0.29776895
168	0x3e0535d6	0.13008818
169	0xbd5bcc36	-0.053661548
170	0xbe8dd8df	-0.27704522
171	0xbda799b3	-0.08183613
172	0x3e109d4f	0.14122508
173	0x3e023c94	0.12718421
174	0x3da4a2e8	0.080388844
175	0x3e0976aa	0.13424173
176	0xbe298f0f	-0.16558479
177	0xbe75b2f0	-0.2399404
178	0x3d877714	0.06614509
179	0xbe3a210b	-0.18176667
180	0x3d94f3b0	0.07273042
181	0x3e24801b	0.16064493
182	0xbe618487	-0.22023211
183	0x3df0576c	0.117354244
184	0x3ce7c1c9	0.028290646
185	0x3e77bd07	0.24193202
186	0xbdd77e55	-0.10522143
187	0xbcf75c46	-0.030195367
188	0x3af7507d	0.0018868592
189	0x3e1beb19	0.15226401
190	0x3be3bf33	0.006950283
191	0xbd8beecd	-0.06832657
192	0x3e64449f	0.22291802
193	0xbdbd07f1	-0.0923003
194	0xbd978751	-0.073988564
195	0x3e62c437	0.22145163
196	0xbdd24c8c	-0.102685064
197	0x3d80e8f1	0.0629443
198	0x3e002723	0.1251493
199	0xbe3a3194	-0.18182975
200	0xbdbfde98	-0.09368628
201	0xbd9f07a4	-0.07765129
202	0x3e01bc29	0.12669434
203	0xbe2e5e87	-0.17028247
204	0xbe80a858	-0.25128436
205	0x3d48c353	0.0490144
206	0xbe38a358	-0.1803106
207	0x3d0dfce8	0.03466502
208	0x3ca7c377	0.020478947
209	0x3cf21e83	0.029555565
210	0x3d62b4cd	0.055348206
211	0x3e2bea0d	0.16788502
212	0xbe03b353	-0.12861376
213	0xbdebba3f	-0.11510133
214	0xbdc3d49d	-0.09562037
215	0xbbe2fce8	-0.0069271214
216	0xbdf892a0	-0.121373415
217	0xbd3bb7e7	-0.04582968
218	0x3ca7f462	0.020502273
219	0x3dd432a9	0.10361225
220	0x3da5d4ae	0.08097206
221	0xbe2c3073	-0.16815357
222	0x3ddd22fa	0.10797687
223	0xbe35f7b5	-0.17770274
224	0xbdb6cb48	-0.089254916
225	0xbe4320bf	-0.1905546
226	0xbd7df304	-0.061999336
227	0xbe29e37f	-0.16590689
228	0xbe4c19b5	-0.19931681
229	0xbdc0c779	-0.094130464
230	0x3e64dfeb	0.22351043
231	0xbd35c526	-0.04437747
232	0x3d8c9371	0.0686406
233	0x3e31d4c5	0.17366321
234	0x3e0b3779	0.1359538
235	0xbe190394	-0.14942771
236	0xbe6460a2	-0.22302487
237	0xbe546a12	-0.20743588
238	0x3e3c8078	0.18408382
239	0x3c8e224b	0.017350337
240	0x3d6d1abf	0.057886835
241	0x3cc100db	0.023559978
242	0xbe3184a7	-0.17335759
243	0xbe390fb8	-0.18072402
244	0x3e4182e1	0.18897583
245	0xbdf50c43	-0.11965229
246	0xbe1ecd63	-0.15508036
247	0xbe6298b4	-0.22128564
248	0xbe4569f9	-0.19278707
249	0xbdddd7fd	-0.10832212
250	0x3c848237	0.016175373
251	0x3dd4b0fd	0.1038532
252	0xbe814388	-0.25246835
253	0xbe465a6b	-0.19370429
254	0x3d893bb1	0.06700838
255	0x3dff0303	0.12451746

prox.1.conv1.bias f4 [32]
0	0xbe337198	-0.17523801
1	0x3e0526af	0.13003038
2	0x3e6444b4	0.22291833
3	0xbe60528e	-0.21906492
4	0xbe08758d	-0.13326092
5	0xbe3e9523	-0.18611579
6	0x3d035a11	0.032068316
7	0xbcd8c18e	-0.026459482
8	0x3ccc41ce	0.024933722
9	0xbe25e231	-0.16199566
10	0x3e7c099b	0.24613039
11	0x3e37d678	0.17952907
12	0xbda1ed41	-0.07906581
13	0xbbb82a6f	-0.005620293
14	0xbd5cac2e	-0.05387514
15	0xbc22b79e	-0.009931473
16	0x3dd27c27	0.102775864
17	0xbe14f1ca	-0.1454536
18	0x3d4ef3e0	0.050525546
19	0x3d82be7f	0.063839905
20	0x3e1b0550	0.15138745
21	0xbdcd38e1	-0.100206144
22	0xbe563237	-0.20917593
23	0x3dcd7d7f	0.10033702
24	0x3d1c82cf	0.038210686
25	0x3e3bed07	0.18352138
26	0x3dda8c7f	0.10671329
27	0x3de3b6a7	0.111188225
28	0xbd79bfb4	-0.060973838
29	0x3c45f8ee	0.012083275
30	0x3d075b43	0.03304602
31	0x3de4dd3a	0.11175008

prox.1.conv2.weight f4 [32, 32, 3, 3]
0	0xbd52012a	-0.05127064
1	0x3c9f4f5e	0.019447025
2	0xbd1a5d22	-0.037686475
3	0x3d19bfce	0.037536435
4	0x3d441c16	0.047878347
5	0x3ba0c139	0.0049058464
6	0x3d485de4	0.048917666
7	0x3c2f79b5	0.01071017
8	0x3dbcd6b4	0.09220639
9	0x3c052d82	0.008128526
10	0xbcedea04	-0.029042251
11	0x3cc7429c	0.024323754
12	0xbcbae59f	-0.02281457
13	0x3d88869e	0.06666301
14	0xbdb8c3c5	-0.09021715
15	0x3a122e89	0.0005576392
16	0xbd932dc1	-0.07186461
17	0xbcfb6a45	-0.030690322
18	0x3c80921f	0.015694676
19	0xbcce47c8	-0.025180712
20	0x3d022969	0.031777773
21	0xbd3042f9	-0.04303262
22	0xbd399b43	-0.045314085
23	0x3d459652	0.04823906
24	0x3d174d49	0.03693894
25	0x3c7133ea	0.01472185
26	0xbc96ba84	-0.018399484
27	0x3b863a7d	0.004096328
28	0x3d3ff85f	0.046867725
29	0x3ca1546b	0.019693574
30	0xbd5c8291	-0.053835455
31	0x3c96beee	0.01840159
32	0x3dabd12b	0.08389505
33	0x3d84715e	0.064669356
34	0xbcc928c4	-0.024555571
35	0x3c39f1d5	0.011349161
36	0x3d544ce4	0.05183114
37	0x3d0ed313	0.034869265
38	0xbd4e8092	-0.050415583
39	0xbda361ff	-0.07977676
40	0x3c990828	0.018680647
41	0xbc7d7f63	-0.015472266
42	0xbd8ae9fe	-0.06782912
43	0xbd3cc1d3	-0.046083283
44	0xbd4a55fa	-0.0493984
45	0xbd4f335e	-0.050586097
46	0xbcbb26f5	-0.022845725
47	0x3cb8ae71	0.022544118
48	0xbcde8034	-0.027160741
49	0xbd37ef73	-0.04490609
50	0x3d19b2db	0.037524085
51	0x3d822899	0.063554
52	0x3c7738ab	0.015089194
53	0x3c1d87e6	0.00961492
54	0x3d4b43bd	0.049625147
55	0x3d4ee5c8	0.050512105
56	0xbd841c01	-0.06450654
57	0xbd611c92	-0.054958887
58	0xb950ee13	-0.00019925115
59	0xbd97f956	-0.07420604
60	0xbc069d61	-0.008216233
61	0xbd97952e	-0.07401501
62	0x3dc59f89	0.096495695
63	0xbce32a27	-0.02773006
64	0x3be7bcc7	0.0070720646
65	0xbceafbd5	-0.028684536
66	0x3d86a05c	0.06573555
67	0xbd90d301	-0.07071496
68	0x3d147614	0.03624542
69	0x3d11ce60	0.035597205
70	0x3c403781	0.011731983
71	0xbdb5ace4	-0.08870867
72	0x3caefa19	0.02135949
73	0x3d0356e2	0.03206528
74	0x3d828903	0.06373789
75	0x3d40cf9b	0.047072988
76	0x3e200260	0.15625906
77	0x3b7c60d8	0.0038509872
78	0xbccd7149	-0.025078433
79	0x3a3f3369	0.00072937325
80	0xbd4b186a	-0.04958383
81	0x3d61e67f	0.05515146
82	0x3d15ab22	0.036540158
83	0x3d8da78f	0.06916725
84	0x3ccea10f	0.025223283
85	0x3a997a60	0.0011709444
86	0x3d52f4ab	0.051502865
87	0x3a627820	0.0008639116
88	0xbd48e59f	-0.04904711
89	0x3c1d93bd	0.009617743
90	0xbcf790ba	-0.030220378
91	0x3c253039	0.010082298
92	0xbd99830f	-0.074957006
93	0x3d014a44	0.031564966
94	0xbba79772	-0.0051144892
95	0x3d1da704	0.038489357
96	0x3ce7f4ee	0.028315034
97	0xbb249473	-0.0025112897
98	0x3d16afb6	0.036788665
99	0x3d6eea13	0.0583287
100	0x3c975499	0.018472956
101	0x3d152e07	0.03642085
102	0xba8ad98c	-0.0010593398
103	0x3dbae929	0.09126503
104	0xbd5966a3	-0.053076398
105	0x3c89565e	0.016764816
106	0xbcfa8c1b	-0.030584386
107	0x3d678ead	0.05653255
108	0xbcf34c07	-0.029699339
109	0x3ca64712	0.02029756
110	0x3cb47bf9	0.022031771
111	0xbdd71d4d	-0.105036356
112	0xbd226bcd	-0.039653588
113	0x3c8b6558	0.017016098
114	0xbc441a7b	-0.011969204
115	0x3ccd865b	0.02508848
116	0x3d5614e3	0.052266013
117	0x3d305cfe	0.043057434
118	0xbc8b5742	-0.017009381
119	0x3c73db19	0.01488378
120	0x393d91e9	0.000180788
121	0x3d4cdcae	0.050015144
122	0x3d3b5c60	0.045742393
123	0xbca738b5	-0.020412782
124	0x3d977ede	0.07397245
125	0x3d2129ce	0.03934651
126	0xbddf64b5	-0.1090788
127	0x3d430c10	0.047618926
128	0xbda8e32f	-0.08246457
129	0xbcf5e9c9	-0.030018704
130	0xbc8d0045	-0.017212043
131	0x3cb0e5b0	0.021593899
132	0x3daafc87	0.08348947
133	0x3d29dd88	0.041471034
134	0x3db9e630	0.09077108
135	0x3cf84c56	0.030309837
136	0xbc0c1b04	-0.008551363
137	0x3d1f7bb6	0.03893634
138	0x3acd063f	0.001564212
139	0xbc2b4afe	-0.010454891
140	0x3c9cbff9	0.019134508
141	0xb94590aa	-0.00018841276
142	0x3dbeea69	0.09322054
143	0x3d4c34f2	0.04985518
144	0x3c7add44	0.015311543
145	0x3d65c15a	0.056092598
146	0xbd4ad9cd	-0.049524117
147	0xbcff0588	-0.031130567
148	0x3d048782	0.032355793
149	0x3de71eae	0.112851486
150	0x3c518af0	0.012789473
151	0x3da12796	0.078688785
152	0x3dbf347c	0.093361825
153	0xbca0ea5c	-0.019643001
154	0xbd185857	-0.037193622
155	0x3d838e7c	0.06423661
156	0xbdaa2597	-0.08307951
157	0x3d9fab5d	0.07796357
158	0x3c1e27fc	0.009653088
159	0x3d474216	0.04864701
160	0xbd8c4f33	-0.068510436
161	0x3d953f5b	0.07287475
162	0xbd8d3fc3	-0.06896927
163	0xbd10dfce	-0.035369687
164	0xbdb7dec8	-0.08978039
165	0xbd41760f	-0.04723173
166	0xbe113e24	-0.14183861
167	0xbdb5db5c	-0.0887973
168	0x3d02f6bd	0.03197359
169	0x3cbaeac4	0.022817023
170	0xbc34fd30	-0.011046693
171	0xbc98108b	-0.018562576
172	0xbd8a485f	-0.06752085
173	0xbc891d65	-0.01673765
174	0xbd8be0a3	-0.068299554
175	0x3b3574e6	0.0027688085
176	0xbd794ab3	-0.060862254
177	0xbcfa847d	-0.030580753
178	0xbcb9a7a6	-0.022662949
179	0x3c37d3f3	0.011219966
180	0xbc86001f	-0.01635748
181	0x3d5a4198	0.05328521
182	0xbd247258	-0.04014811
183	0x3b8de857	0.0043306756
184	0x3bfdaa79	0.007741269
185	0xbcd00bb6	-0.02539621
186	0xbc327b93	-0.01089372
187	0x3c5d817f	0.013519644
188	0xbbc1da7c	-0.005915938
189	0x3d160b12	0.03663165
190	0xbbc73e75	-0.0060804435
191	0x3d18610f	0.037201937
192	0x3ae135f3	0.0017182216
193	0x3cc33c5e	0.023832496
194	0xbc952426	-0.018205713
195	0x3c96f8da	0.018429209
196	0x3d3e80de	0.046509616
197	0xbd4e47af	-0.05036133
198	0x3d0d2434	0.034458354
199	0xbd8a1073	-0.06741419
200	0x3d9c229b	0.07623788
201	0x3d7a8310	0.061160147
202	0x3e010af8	0.1260184
203	0xbd2c0fac	-0.042007133
204	0x3b8ed70e	0.0043591326
205	0x3d7075f8	0.058706254
206	0x3d8339bb	0.064074956
207	0x3b560643	0.003265754
208	0xbc17cc8f	-0.009265079
209	0xbd7cecc1	-0.061749224
210	0xbcf8289a	-0.030292798
211	0xbc42ee1d	-0.011897591
212	0xbd357c34	-0.044307902
213	0xbd72f78e	-0.059318118
214	0xbd8d189e	-0.06889461
215	0xbb94224a	-0.004520689
216	0x3ce64369	0.028108316
217	0xbcd56eaf	-0.026053755
218	0xbc55440d	-0.013016713
219	0x3c990021	0.01867682
220	0x3dc1831a	0.09448834
221	0x3c97cdd0	0.018530756
222	0x3c905622	0.017619196
223	0x3d1bbce4	0.038021937
224	0x3d8eed7c	0.0697889
225	0x3d0140ab	0.031555813
226	0xbaff293f	-0.0019467248
227	0x3cdcfb1a	0.026975203
228	0xbcf7520d	-0.030190492
229	0xbcafcb03	-0.021459108
230	0x3d6cc197	0.05780181
231	0xbd59d5e0	-0.053182483
232	0x3bc0274f	0.005864061
233	0x3d2c2cb5	0.042034823
234	0x3d5554d1	0.05208284
235	0x3c4e0300	0.012573957
236	0x3d0ce9e1	0.03440273
237	0xbd1b20b6	-0.037872992
238	0x3d7fe488	0.062473804
239	0x3c074616	0.008256456
240	0xbc9deb83	-0.01927734
241	0x3c454131	0.012039469
242	0xbda16efd	-0.078824975
243	0x3d068ed2	0.032851048
244	0x3ca4ba49	0.020108359
245	0x3d458842	0.04822565
246	0x3d1c237e	0.038119785
247	0xbcae3e10	-0.021269828
248	0x3d8f5ffb	0.07000729
249	0xbcd3de46	-0.025862824
250	0x3c8b6f78	0.017020926
251	0xbd3730b7	-0.044724192
252	0x3c6596e2	0.014013024
253	0xbbfb1216	-0.007662068
254	0xbd8a9463	-0.06766584
255	0x3cdab57e	0.02669787

prox.1.conv2.bias f4 [32]
0	0xbd4c0551	-0.049809758
1	0x3cc110ba	0.023567546
2	0xbd0c1f80	-0.03420973
3	0x3c39c620	0.011338741
4	0x3d008f1f	0.03138649
5	0x3cc8d5d7	0.02451603
6	0x3dbf3eed	0.09338174
7	0xbd16b09b	-0.036789518
8	0x3c956745	0.01823772
9	0xbce898f3	-0.028393244
10	0x3a59ac22	0.0008303543
11	0x3c1a3838	0.009412818
12	0x3cd87585	0.026423225
13	0x3bd67383	0.006544532
14	0x3c6a1b85	0.014288788
15	0x3d12c928	0.03583637
16	0xbd001cda	-0.031277515
17	0xbd8b4e15	-0.06802002
18	0x3d1cdc9f	0.03829634
19	0x3d8f945c	0.07010719
20	0x3d15b3be	0.03654837
21	0x3d16c31f	0.036807176
22	0xba25c7c6	-0.0006324019
23	0xbba9f8bd	-0.0051871226
24	0x3d5738fa	0.05254457
25	0x3cafd3f4	0.021463372
26	0x3cfbb248	0.03072466
27	0xbc2a8261	-0.010407061
28	0xbcfe7583	-0.031061893
29	0x3ce6b129	0.028160648
30	0x3ca90014	0.02062992
31	0x3d405576	0.046956502

prox.1.conv3.weight f4 [1, 32, 3, 3]
0	0x3cd231d4	0.025658526
1	0xbadfff14	-0.0017089569
2	0x3d7aac49	0.06119946
3	0x3da88036	0.08227579
4	0xbd057668	-0.032583624
5	0x3dcd2f6a	0.10018809
6	0xbc3d41f0	-0.011551365
7	0x3d4bd184	0.049760357
8	0xbdc46237	-0.095890455
9	0xbd854858	-0.06507939
10	0xbd5953df	-0.0530585
11	0x3d2be8ff	0.04197025
12	0xbc2e62e6	-0.010643696
13	0x3d8b63be	0.06806134
14	0x3d9f020e	0.07764064
15	0x3decda77	0.11565106
16	0x3d3b84c7	0.045780923
17	0x3da895d8	0.082317054
18	0xbd5f0d21	-0.05445588
19	0xbdc07551	-0.09397376
20	0xbc368242	-0.011139454
21	0x3da34019	0.0797121
22	0x3dc1ad59	0.094568916
23	0xbc2f2e7f	-0.010692238
24	0x3d1304c9	0.035893235
25	0x3ca1968e	0.01972511
26	0x3d84f6c0	0.06492376
27	0xbd3d74da	-0.046254016
28	0x3d42c92b	0.04755513
29	0x3c2a5a54	0.0103975125
30	0x3d82fc15	0.06395737
31	0x3d740646	0.059576295
32	0x3d9652a6	0.07339983
33	0xbd11e146	-0.035615228
34	0x3d175bb8	0.036952704
35	0xbba573c2	-0.0050492
36	0x3de427af	0.111403815
37	0xbdb50927	-0.08839636
38	0xbdcf733d	-0.10129402
39	0xbd830e81	-0.06399251
40	0x3e101f4c	0.14074439
41	0xbd617337	-0.055041518
42	0xbdec3c81	-0.11534978
43	0x3c81ba0b	0.015835783
44	0x3c35e77f	0.011102556
45	0x3d76045a	0.060062744
46	0x3d1daca7	0.038494732
47	0xbd11d6b7	-0.03560516
48	0x3dbe4ad3	0.09291615
49	0x3d808309	0.06274993
50	0x3cad0aab	0.021123251
51	0x3d1ea413	0.038730692
52	0x3da18e16	0.07888429
53	0x3ce9d88e	0.028545644
54	0x3e008238	0.12549675
55	0x3d033709	0.032034907
56	0x3d2cc591	0.0421806
57	0xbd964560	-0.07337451
58	0x3ca0ed3a	0.019644368
59	0xbd6984eb	-0.057011526
60	0xbdc5a722	-0.09651019
61	0xbb99520f	-0.0046789716
62	0x3d65fcca	0.05614928
63	0x3d9d73d7	0.0768811
64	0x3d11ecf9	0.035626385
65	0x3d3d08fb	0.046151143
66	0x3b969972	0.004595929
67	0x3d223848	0.039604455
68	0xbcfb6016	-0.030685466
69	0xbccfeb41	-0.025380732
70	0x3d753d93	0.059873175
71	0x3d694859	0.05695376
72	0x3d05e80b	0.032691997
73	0xbd82660a	-0.06367119
74	0x3d48c629	0.049017105
75	0xbdb4fa03	-0.088367485
76	0xbceabacf	-0.02865353
77	0xbbcabfff	-0.0061874385
78	0x3c2a3391	0.010388271
79	0xbda45e93	-0.08025851
80	0xbcfadade	-0.030621942
81	0x3d91f159	0.071261115
82	0x3aa9f44c	0.0012966483
83	0xbcb31507	-0.021860613
84	0x3d133bad	0.035945583
85	0x3d6cd114	0.05781658
86	0x3db6120c	0.08890161
87	0xbd572b2c	-0.052531406
88	0xbdbd5d3f	-0.09246301
89	0xbd01c74a	-0.031684197
90	0x3d700902	0.05860234
91	0xbcfe78a8	-0.031063393
92	0x3d8fbcad	0.07018409
93	0x3bad5ce8	0.0052906163
94	0x3d63e3bd	0.05563711
95	0x3d7139b5	0.058892924
96	0xbc8f7d7d	-0.017515892
97	0x3d1c9dd7	0.038236465
98	0xbc9d7450	-0.019220501
99	0x3d19f2a9	0.037584934
100	0x3d46865a	0.04846797
101	0x3cd4d8b7	0.025982244
102	0xbd0a7c8c	-0.033810183
103	0x3dd87ca8	0.10570651
104	0xbce28857	-0.027652903
105	0xbd89bf3a	-0.06725927
106	0xbb73bc9a	-0.0037191273
107	0x3c07ed54	0.0082963295
108	0xbd11dbb3	-0.035609912
109	0xbd325f78	-0.043548077
110	0xbc2c7629	-0.010526218
111	0xbc6f0d1b	-0.014590527
112	0x3da86e5e	0.08224176
113	0x3d7447c9	0.059638772
114	0x3d865c0c	0.06560525
115	0xbb2ddbf0	-0.0026528798
116	0x3d8eb822	0.06968714
117	0x3d16f8f2	0.036858507
118	0x3ce327b2	0.02772889
119	0x3d2971b0	0.041368186
120	0xbc5c902d	-0.013462109
121	0xbd4e6d2f	-0.050397094
122	0x3aa06f79	0.0012240253
123	0xbdb32218	-0.08746737
124	0xbd2c2d11	-0.042035166
125	0xbdc3adab	-0.09554609
126	0x3d774b5c	0.060374603
127	0xbddcb8bf	-0.10777425
128	0xbd46143b	-0.048359137
129	0x3d0b0f0c	0.033949897
130	0x3db83f91	0.08996499
131	0x3c0de828	0.008661307
132	0x3d2c69bc	0.042093024
133	0x3d91a40f	0.0711137
134	0xbb96f205	-0.0046064877
135	0xbd8c0b8c	-0.0683814
136	0x3d0a67cb	0.03379039
137	0xbdc357d0	-0.09538233
138	0xbda9bed4	-0.08288351
139	0xbdfe2863	-0.12410047
140	0xbd9c1efe	-0.07623099
141	0x3bd1164f	0.006380833
142	0xbd611812	-0.054954596
143	0xbd217398	-0.03941688
144	0xbd6e2380	-0.058139324
145	0xbd1d0aeb	-0.03834049
146	0xbdadf11b	-0.08493253
147	0x3ccc6d3b	0.024954429
148	0xbe0b2d95	-0.13591607
149	0x3cf6c1c5	0.030121693
150	0xbca18427	-0.019716335
151	0xbdd5036c	-0.10401043
152	0xbdab6935	-0.08369676
153	0x3d749acb	0.059717935
154	0x3c01b26a	0.007916072
155	0xbce5c4ca	-0.028047938
156	0x3bdb1a89	0.006686513
157	0xbd4bd985	-0.04976799
158	0xbd7b81ec	-0.0614032
159	0xbd936ccc	-0.07198486
160	0xbd1a6420	-0.037693143
161	0x3bd0c781	0.006371439
162	0x3d86b43c	0.06577346
163	0x3b98b690	0.004660435
164	0x3baa0a45	0.0051892125
165	0x3c7ee09f	0.0155564835
166	0xbd07499d	-0.033029187
167	0x3d9bc688	0.07606226
168	0xbcd8b94b	-0.026455542
169	0x3daedbc3	0.0853801
170	0xba01b635	-0.00049481104
171	0xbdc1175a	-0.09428282
172	0xbde42781	-0.11140347
173	0xbd722b3b	-0.05912326
174	0x3cd14503	0.025545603
175	0xbcc668ff	-0.024219988
176	0x3c31dd2b	0.010855953
177	0x3d32bf66	0.043639563
178	0x3d9f6760	0.07783389
179	0x3d8c7396	0.06857984
180	0xbd2a7be1	-0.041622046
181	0xbdfc0545	-0.123056926
182	0xbda92720	-0.082594156
183	0xbcd75f60	-0.026290596
184	0x3c90380a	0.017604847
185	0x398ae179	0.000264894
186	0xbd4e0843	-0.050300848
187	0xbd9a3174	-0.07528964
188	0x3d163ccf	0.036679085
189	0x3d94c829	0.0726474
190	0xbe04efc6	-0.12982091
191	0xbd221841	-0.03957391
192	0x3d6dd806	0.058067344
193	0x3d21a95d	0.039468158
194	0x3c5ce9dd	0.013483492
195	0x3d933ddf	0.07189535
196	0x3db24c31	0.087059386
197	0xbcab2977	-0.020893795
198	0x3dd2feb9	0.10302491
199	0xbd82ef6c	-0.06393322
200	0x3d3ded25	0.046368737
201	0xbaa4cf5c	-0.0012574005
202	0xbd2f0e20	-0.04273808
203	0xbdd125b6	-0.10212271
204	0xbd071dd4	-0.03298743
205	0xbd948d5b	-0.07253524
206	0x3e1cef0c	0.15325564
207	0x3bfcff75	0.0077208825
208	0xbd8db9fe	-0.06920241
209	0x3d2cf88a	0.042229213
210	0xbca49017	-0.020088239
211	0x3c34fd81	0.011046768
212	0x3d45d29c	0.048296556
213	0x3b8210c7	0.003969285
214	0x3c498a8f	0.012301101
215	0x3d910e0a	0.07082756
216	0xbd624988	-0.055245906
217	0xbc40b255	-0.011761268
218	0x3c9ab6c5	0.01888598
219	0xbdb5be1f	-0.08874153
220	0xba9de5ab	-0.0012046596
221	0x3ceba054	0.028762974
222	0x3d6bfa86	0.057611965
223	0x3c48065a	0.012208546
224	0x3d119d03	0.03555013
225	0x3c958d64	0.018255897
226	0x3da3e9e4	0.080035955
227	0x3d8b9e55	0.06817309
228	0x3d4f76b2	0.050650306
229	0x3c2e89cc	0.0106529705
230	0x3d3e004a	0.046386994
231	0x3d23f865	0.04003181
232	0x3c0337ee	0.00800894
233	0x3d2dabf6	0.042400323
234	0xbe824864	-0.25445855
235	0xbe361464	-0.17781216
236	0xbdfd8a59	-0.12379903
237	0xbdc1df82	-0.09466459
238	0xbdacea90	-0.08443177
239	0x3c476969	0.012171128
240	0xbd113f8e	-0.035461
241	0x3d4968bf	0.04917216
242	0xbc0d1627	-0.008611239
243	0x3da70ef8	0.08157152
244	0xbd174575	-0.036931474
245	0xbd8a22ae	-0.06744896
246	0x3d85ed6b	0.065394245
247	0x3d206cd1	0.039166275
248	0x3de3654e	0.11103307
249	0xbd2996b5	-0.04140349
250	0x3d52fb42	0.05150915
251	0xbd14424b	-0.036196034
252	0xbd8816dc	-0.06644985
253	0xbde2d37d	-0.110754944
254	0xbd830924	-0.06398228
255	0x3d64d0b4	0.055863097
